…
 stochastic=False, test=False, test_atol=None, test_batch_size=1000, test_rtol=None, test_solver=None, time_scale=0.5, top_k_reg=0.1, train_T=True, training_noise=0.0, use_cpu=False, use_density=False, use_growth=False, use_magnitude=False, val_freq=100, vecint=None, viz_batch_size=2000, viz_freq=100, viz_freq_growth=100, weight_decay=1e-05, whiten=False)
SequentialFlow(
  (chain): ModuleList(
    (0): CNF(
      (odefunc): RegularizedODEfunc(
        (odefunc): ODEfunc(
          (diffeq): ODEnet(
            (layers): ModuleList(
              (0): ConcatSquashLinear(
                (_layer): Linear(in_features=5, out_features=64, bias=True)
                (_hyper_bias): Linear(in_features=1, out_features=64, bias=False)
                (_hyper_gate): Linear(in_features=1, out_features=64, bias=True)
              )
              (1): ConcatSquashLinear(
                (_layer): Linear(in_features=64, out_features=64, bias=True)
                (_hyper_bias): Linear(in_features=1, out_features=64, bias=False)
                (_hyper_gate): Linear(in_features=1, out_features=64, bias=True)
              )
              (2): ConcatSquashLinear(
                (_layer): Linear(in_features=64, out_features=64, bias=True)
                (_hyper_bias): Linear(in_features=1, out_features=64, bias=False)
                (_hyper_gate): Linear(in_features=1, out_features=64, bias=True)
              )
              (3): ConcatSquashLinear(
                (_layer): Linear(in_features=64, out_features=5, bias=True)
                (_hyper_bias): Linear(in_features=1, out_features=5, bias=False)
                (_hyper_gate): Linear(in_features=1, out_features=5, bias=True)
              )
            )
            (activation_fns): ModuleList(
              (0): Tanh()
              (1): Tanh()
              (2): Tanh()
            )
          )
        )
      )
    )
  )
)
Number of trainable parameters: 9621
Iter 0001 | Time 12.5864(12.5864) | Loss 9.073777(9.073777) | NFE Forward 14(14.0) | NFE Backward 138(138.0)
Iter 0002 | Time 11.8407(12.5342) | Loss 8.852876(9.058314) | NFE Forward 14(14.0) | NFE Backward 138(138.0)
…
