…
ne, dtl2int=None, JFrobint=None, JdiagFrobint=None, JoffdiagFrobint=None, vecint=None, use_magnitude=False, interp_reg=None, save='./results/diego_results_vanilla', save_freq=1000, viz_freq=100, viz_freq_growth=100, val_freq=100, log_freq=10, gpu=0, use_cpu=False, no_display_loss=True, top_k_reg=0.0, training_noise=0.0, embedding_name='pca', whiten=False)
SequentialFlow(
  (chain): ModuleList(
    (0): CNF(
      (odefunc): RegularizedODEfunc(
        (odefunc): ODEfunc(
          (diffeq): ODEnet(
            (layers): ModuleList(
              (0): ConcatSquashLinear(
                (_layer): Linear(in_features=5, out_features=64, bias=True)
                (_hyper_bias): Linear(in_features=1, out_features=64, bias=False)
                (_hyper_gate): Linear(in_features=1, out_features=64, bias=True)
              )
              (1): ConcatSquashLinear(
                (_layer): Linear(in_features=64, out_features=64, bias=True)
                (_hyper_bias): Linear(in_features=1, out_features=64, bias=False)
                (_hyper_gate): Linear(in_features=1, out_features=64, bias=True)
              )
              (2): ConcatSquashLinear(
                (_layer): Linear(in_features=64, out_features=64, bias=True)
                (_hyper_bias): Linear(in_features=1, out_features=64, bias=False)
                (_hyper_gate): Linear(in_features=1, out_features=64, bias=True)
              )
              (3): ConcatSquashLinear(
                (_layer): Linear(in_features=64, out_features=5, bias=True)
                (_hyper_bias): Linear(in_features=1, out_features=5, bias=False)
                (_hyper_gate): Linear(in_features=1, out_features=5, bias=True)
              )
            )
            (activation_fns): ModuleList(
              (0): Tanh()
              (1): Tanh()
              (2): Tanh()
            )
          )
        )
      )
    )
  )
)
Number of trainable parameters: 9621
/Users/diegoesc/Dropbox/_academics/college/UROP/trajnet_ablation/TrajectoryNet-Sinkhorn/TrajectoryNet/main.py
""" main.py
…
